K= 5
N_WAY= 5
Model: "generator"
_________________________________________________________________
Layer (type)                 Output Shape              Param #   
=================================================================
input_1 (InputLayer)         [(None, 512)]             0         
_________________________________________________________________
dense (Dense)                (None, 3136)              1608768   
_________________________________________________________________
leaky_re_lu (LeakyReLU)      (None, 3136)              0         
_________________________________________________________________
reshape (Reshape)            (None, 7, 7, 64)          0         
_________________________________________________________________
conv2d_transpose (Conv2DTran (None, 21, 21, 64)        65536     
_________________________________________________________________
batch_normalization (BatchNo (None, 21, 21, 64)        256       
_________________________________________________________________
leaky_re_lu_1 (LeakyReLU)    (None, 21, 21, 64)        0         
_________________________________________________________________
conv2d_transpose_1 (Conv2DTr (None, 42, 42, 64)        65536     
_________________________________________________________________
batch_normalization_1 (Batch (None, 42, 42, 64)        256       
_________________________________________________________________
leaky_re_lu_2 (LeakyReLU)    (None, 42, 42, 64)        0         
_________________________________________________________________
conv2d_transpose_2 (Conv2DTr (None, 84, 84, 64)        65536     
_________________________________________________________________
batch_normalization_2 (Batch (None, 84, 84, 64)        256       
_________________________________________________________________
leaky_re_lu_3 (LeakyReLU)    (None, 84, 84, 64)        0         
_________________________________________________________________
conv2d_transpose_3 (Conv2DTr (None, 84, 84, 64)        65536     
_________________________________________________________________
batch_normalization_3 (Batch (None, 84, 84, 64)        256       
_________________________________________________________________
leaky_re_lu_4 (LeakyReLU)    (None, 84, 84, 64)        0         
_________________________________________________________________
conv2d_transpose_4 (Conv2DTr (None, 84, 84, 64)        65536     
_________________________________________________________________
batch_normalization_4 (Batch (None, 84, 84, 64)        256       
_________________________________________________________________
leaky_re_lu_5 (LeakyReLU)    (None, 84, 84, 64)        0         
_________________________________________________________________
conv2d (Conv2D)              (None, 84, 84, 3)         3075      
=================================================================
Total params: 1,940,803
Trainable params: 1,940,163
Non-trainable params: 640
_________________________________________________________________
Model: "discriminator"
_________________________________________________________________
Layer (type)                 Output Shape              Param #   
=================================================================
input_2 (InputLayer)         [(None, 84, 84, 3)]       0         
_________________________________________________________________
conv2d_1 (Conv2D)            (None, 42, 42, 64)        3072      
_________________________________________________________________
batch_normalization_5 (Batch (None, 42, 42, 64)        256       
_________________________________________________________________
leaky_re_lu_6 (LeakyReLU)    (None, 42, 42, 64)        0         
_________________________________________________________________
conv2d_2 (Conv2D)            (None, 21, 21, 64)        65536     
_________________________________________________________________
batch_normalization_6 (Batch (None, 21, 21, 64)        256       
_________________________________________________________________
leaky_re_lu_7 (LeakyReLU)    (None, 21, 21, 64)        0         
_________________________________________________________________
conv2d_3 (Conv2D)            (None, 11, 11, 64)        65536     
_________________________________________________________________
batch_normalization_7 (Batch (None, 11, 11, 64)        256       
_________________________________________________________________
leaky_re_lu_8 (LeakyReLU)    (None, 11, 11, 64)        0         
_________________________________________________________________
conv2d_4 (Conv2D)            (None, 6, 6, 64)          65536     
_________________________________________________________________
batch_normalization_8 (Batch (None, 6, 6, 64)          256       
_________________________________________________________________
leaky_re_lu_9 (LeakyReLU)    (None, 6, 6, 64)          0         
_________________________________________________________________
conv2d_5 (Conv2D)            (None, 3, 3, 64)          65536     
_________________________________________________________________
batch_normalization_9 (Batch (None, 3, 3, 64)          256       
_________________________________________________________________
leaky_re_lu_10 (LeakyReLU)   (None, 3, 3, 64)          0         
_________________________________________________________________
global_max_pooling2d (Global (None, 64)                0         
_________________________________________________________________
dense_1 (Dense)              (None, 1)                 65        
=================================================================
Total params: 266,561
Trainable params: 265,921
Non-trainable params: 640
_________________________________________________________________
Continue training from epoch 100.
training GAN is done
Model: "MiniImagenetModel"
_________________________________________________________________
Layer (type)                 Output Shape              Param #   
…
