Model: "generator"
_________________________________________________________________
Layer (type)                 Output Shape              Param #   
=================================================================
dense (Dense)                (None, 6272)              809088    
_________________________________________________________________
leaky_re_lu (LeakyReLU)      (None, 6272)              0         
_________________________________________________________________
reshape (Reshape)            (None, 7, 7, 128)         0         
_________________________________________________________________
conv2d_transpose (Conv2DTran (None, 14, 14, 128)       262272    
_________________________________________________________________
leaky_re_lu_1 (LeakyReLU)    (None, 14, 14, 128)       0         
_________________________________________________________________
conv2d_transpose_1 (Conv2DTr (None, 28, 28, 128)       262272    
_________________________________________________________________
leaky_re_lu_2 (LeakyReLU)    (None, 28, 28, 128)       0         
_________________________________________________________________
conv2d (Conv2D)              (None, 28, 28, 1)         6273      
=================================================================
Total params: 1,339,905
Trainable params: 1,339,905
Non-trainable params: 0
_________________________________________________________________
Model: "discriminator"
_________________________________________________________________
Layer (type)                 Output Shape              Param #   
=================================================================
conv2d_1 (Conv2D)            (None, 14, 14, 64)        640       
_________________________________________________________________
leaky_re_lu_3 (LeakyReLU)    (None, 14, 14, 64)        0         
_________________________________________________________________
conv2d_2 (Conv2D)            (None, 7, 7, 128)         73856     
_________________________________________________________________
leaky_re_lu_4 (LeakyReLU)    (None, 7, 7, 128)         0         
_________________________________________________________________
conv2d_3 (Conv2D)            (None, 4, 4, 128)         147584    
_________________________________________________________________
leaky_re_lu_5 (LeakyReLU)    (None, 4, 4, 128)         0         
_________________________________________________________________
global_max_pooling2d (Global (None, 128)               0         
_________________________________________________________________
dense_1 (Dense)              (None, 1)                 129       
=================================================================
Total params: 222,209
Trainable params: 222,209
Non-trainable params: 0
_________________________________________________________________
Continue training from epoch 500.
GAN training finished
before: 1200
after: 84
Model: "SimpleModel"
_________________________________________________________________
Layer (type)                 Output Shape              Param #   
…
